Emobooks 7/app/src/main/assets/model#2.tflite (tflite, 44032 bytes, 6 tensors)

conv2d_1/Conv2D_bias f4 [16]
0	0xbdae0162	-0.084963575
1	0xbd385622	-0.045004018
2	0xbe101a59	-0.14072551
3	0xbefd133c	-0.49428737
4	0x3fdf7098	1.7456236
5	0xbe9e46ae	-0.309133
6	0xbdbcb8a2	-0.092149034
7	0xbff356a4	-1.9010816
8	0xbc9583a4	-0.018251248
9	0xbe68bc21	-0.22728015
10	0xbdb6db7f	-0.08928584
11	0xbc9732a6	-0.018456768
12	0xbee7efae	-0.4530005
13	0xbf8ceac8	-1.100915
14	0xbde1eb20	-0.11031175
15	0xbd8923df	-0.06696295

conv2d_1/kernel f4 [16, 2, 5, 2]
0	0xbe5abdb7	-0.21361433
1	0xbe723f55	-0.23656972
2	0x3d2d7918	0.042351812
3	0xbe337634	-0.1752556
4	0xbe394858	-0.18094003
5	0xbdb5191c	-0.0884268
6	0xbe1869a7	-0.14884053
7	0x3d01bb14	0.031672552
8	0x3d388f79	0.0450587
9	0x3d9eb89a	0.07750054
10	0xbe6797ed	-0.22616549
11	0xbd97ee17	-0.07418459
12	0xbeabc056	-0.33545178
13	0xbd8d599d	-0.06901858
14	0xbe5e6c62	-0.21721032
15	0xbcea5991	-0.028607162
16	0xbc0e1e6b	-0.008674244
17	0xbb82cf59	-0.003992003
18	0xbd70580c	-0.058677718
19	0xbdf9adce	-0.12191354
20	0xbdaecc72	-0.085350886
21	0xbd853f71	-0.06506241
22	0xbd60c334	-0.05487366
23	0xbe00ccc2	-0.12578109
24	0xbdffd593	-0.12491908
25	0x3dcc84f3	0.099862956
26	0xbe58f9dd	-0.21189065
27	0xbda35abc	-0.079762906
28	0x3c8b29c8	0.016987696
29	0xbcdbebf1	-0.026845904
30	0xbc1e3cea	-0.009658078
31	0xbd6e45a7	-0.058171894
32	0x3d1374f9	0.036000226
33	0x3c2230a2	0.00989929
34	0x3e1234fa	0.14278021
35	0xbe18f634	-0.14937669
36	0xbca86144	-0.020554192
37	0x3da041c9	0.078250475
38	0xbe02b94c	-0.12765998
39	0xbe459892	-0.19296482
40	0xbd9628ec	-0.07332024
41	0x3def45ec	0.116832584
42	0xbca4b4ee	-0.020105805
43	0xbd27e6c8	-0.040991575
44	0xbe790297	-0.24317394
45	0x3cdba61e	0.02681261
46	0xbe9d93aa	-0.3077672
47	0xbc0d6751	-0.00863059
48	0xbe998c63	-0.2998992
49	0xbd7d4da4	-0.061841622
50	0xbdf80100	-0.12109566
51	0xbd48fa9c	-0.049067125
52	0xbe83b7fe	-0.25726312
53	0x3d9210d8	0.07132119
54	0x3d1fe411	0.03903586
55	0x3e0ad25d	0.1355681
56	0xbe15ceb5	-0.14629634
57	0xbe34c407	-0.17652903
58	0xbded09cf	-0.115741365
59	0xbd94b169	-0.07260401
60	0xbf91d4ae	-1.139303
61	0x3f3680ce	0.7129029
62	0xbf57829c	-0.8418367
63	0xbf8e4e74	-1.1117692
64	0xbfdf658b	-1.7452863
65	0x3fd1f26e	1.6402109
66	0xc0138b0f	-2.3053625
67	0xc0157f01	-2.3358767
68	0xbf95280d	-1.1652848
69	0x3f8eb0d8	1.1147718
70	0x3fd451d2	1.658747
71	0x3e165926	0.14682445
72	0x3e2bc75a	0.16775265
73	0x3d8e5e58	0.069515884
74	0xbf1d8ab2	-0.6153976
75	0xbf374523	-0.7158987
76	0x3f8d4aea	1.1038487
77	0x3fb5a649	1.4191371
78	0x3fd87bef	1.6912822
79	0x3e5340b7	0.20630156
80	0x40322f5f	2.7841413
81	0x3d02324e	0.031786256
82	0xbfd21007	-1.6411141
83	0xbc7f5bc1	-0.015585841
84	0xc105a0d5	-8.351766
85	0x3c11e27e	0.008904098
86	0xbf9fc4d3	-1.2481941
87	0xbc674f2e	-0.014117999
88	0x3eb5fd4e	0.3554482
89	0xbad603c3	-0.0016328025
90	0xc041f873	-3.0307891
91	0x3cfe1758	0.03101699
92	0x3f5fb825	0.8739036
93	0x3c456d75	0.012050022
94	0x40ad0e03	5.4079604
95	0x3cea8642	0.028628472
96	0x40021d42	2.0330358
97	0x395dba82	0.00021145682
98	0xbfaec3e8	-1.3653536
99	0x3b924428	0.0044636913
100	0xbeb959aa	-0.3620122
101	0xbcd87410	-0.02642253
102	0x3d9a73ca	0.07541616
103	0xbe58e797	-0.21182095
104	0x3e9db74b	0.30803904
105	0xbe024208	-0.12720501
106	0xbbfbd092	-0.0076847756
107	0xbe3afde0	-0.18260908
108	0x3ea16907	0.31525442
109	0xbdb95fd0	-0.09051478
110	0x3e7d1f61	0.24719001
111	0xbe33dbcb	-0.17564313
112	0xbf0ef33e	-0.5583991
113	0xbd85dd21	-0.065363176
114	0xbf813dd1	-1.009699
115	0xbd506e23	-0.050886285
116	0xbbabb224	-0.005239742
117	0xbd3695fe	-0.044576637
118	0x3c02d383	0.007984999
119	0xbdce0326	-0.10059194
120	0xbe0c24eb	-0.13685958
121	0xbe70195b	-0.23447172
122	0xbe66bdc8	-0.22533333
123	0x3e01a344	0.12659937
124	0xbbe90141	-0.007110745
125	0xbe196505	-0.14979942
126	0xbe70ceb1	-0.23516347
127	0x3d64ee7e	0.055891506
128	0xbdb26eb5	-0.08712522
129	0xbe8f5ae4	-0.27999032
130	0xbdd74a58	-0.10512227
131	0x3bbbaf14	0.005727658
132	0x3cbc6dd1	0.023001583
133	0xbe761d35	-0.24034579
134	0x3ddf35ff	0.10898971
135	0x3e12fc9e	0.14354178
136	0x3da8478e	0.08216773
137	0xbe873ef7	-0.26415226
138	0xbda3a73f	-0.07990884
139	0xbb73f640	-0.0037225634
140	0x3f8aee65	1.0854002
141	0x3e972f10	0.29528093
142	0xbe2acbee	-0.16679356
143	0xbfd29b64	-1.6453671
144	0x3f9ca67b	1.2238306
145	0x3e7d9d81	0.24767114
146	0x3f602463	0.8755552
147	0x3f0147e7	0.5050034
148	0x3eb171a0	0.34657001
149	0x3f3052a7	0.6887612
150	0x3e63bf78	0.22241008
151	0xbdb36eca	-0.08761366
152	0xbc6283ca	-0.013825366
153	0xbf9c730b	-1.2222608
154	0xbf8249eb	-1.0178808
155	0xbf1c22ef	-0.60990804
156	0xc0306876	-2.7563758
157	0xc025645b	-2.5842502
158	0xbf4f8856	-0.8106741
159	0xbf149e21	-0.58053786
160	0xbd689cf6	-0.056790315
161	0xbe18914a	-0.14899173
162	0xbebfc0e7	-0.3745186
163	0xbe4ec498	-0.20192182
164	0xbe9f56b3	-0.31120834
165	0xbe147c45	-0.1450053
166	0xbe94cd93	-0.2906309
167	0xbd0fe732	-0.035132594
168	0xbd83b0e7	-0.06430226
169	0xbf1261e5	-0.57180625
170	0x3e466f77	0.19378458
171	0xbed1477f	-0.4087486
172	0xbc8ec1b2	-0.017426345
173	0xbe0482f8	-0.12940586
174	0xbd8f6417	-0.070015125
175	0x3dc611ef	0.09671389
176	0xbd7948b5	-0.060860354
177	0x3e4dbab5	0.20090754
178	0xbc786148	-0.015159912
179	0xbe913b68	-0.28365636
180	0xbe2f87f9	-0.17141713
181	0xbde1eeaf	-0.110318534
182	0x3ef15cef	0.47141215
183	0xbf0e15ae	-0.5550183
184	0xbea5f879	-0.32416132
185	0xbd33c4dc	-0.04388891
186	0x3dd7d41f	0.10538506
187	0xbdfc1eda	-0.12310572
188	0x3c2bb119	0.010479235
189	0x3e0a8161	0.13525917
190	0xbe392bf8	-0.18083179
191	0x3d12e1e0	0.035859942
192	0xbf739909	-0.9515539
193	0xbbdf98fd	-0.0068236575
194	0xbf06c212	-0.5263988
195	0xbe4636e8	-0.19356883
196	0x3d8031f6	0.06259529
197	0xbf5bdac3	-0.8588068
198	0x3e0e46d7	0.13894211
199	0x3e05e151	0.13074233
200	0x3debb745	0.11509565
201	0xbc51a76d	-0.012796265
202	0xbe0ec8ce	-0.13943788
203	0xbd8352e5	-0.06412295
204	0xbe011cdf	-0.1260867
205	0xbe1cd222	-0.15314534
206	0x3d39aba3	0.0453297
207	0xbe05f9c2	-0.13083556
208	0x3d75b474	0.059986547
209	0xbcab741a	-0.020929385
210	0x3d0324f6	0.03201767
211	0x3ceafbb2	0.02868447
212	0xbe66cc64	-0.22538906
213	0xbe784cfb	-0.24248116
214	0x3dc2e03f	0.09515428
215	0x3e0edfe0	0.13952589
216	0x3d9d40d6	0.07678382
217	0xbe357831	-0.1772163
218	0xbdc771c3	-0.09738495
219	0x3d870f7c	0.0659475
220	0x3fd626c6	1.6730583
221	0x3c11a7a5	0.008890067
222	0xc0c723df	-6.223129
223	0x3ab049e6	0.0013449758
224	0x3fa9f5d5	1.3278147
225	0x3a60e558	0.0008579097
226	0x3fcb39af	1.5876979
227	0xbc41eab6	-0.011835745
228	0x3fcb4929	1.5881702
229	0xbb1a26d3	-0.0023521676
230	0x40b520ab	5.660238
231	0x3c33b5a1	0.010968597
232	0x4018f281	2.3898013
233	0xbb5b30bf	-0.0033445803
234	0xc0e11cba	-7.0347567
235	0x3bcc7440	0.006239444
236	0x3f30eba0	0.69109535
237	0xbbc82521	-0.0061079417
238	0xbfc142df	-1.5098532
239	0xbc13f15c	-0.0090297125
240	0x3e9c6602	0.30546576
241	0xbf21371b	-0.6297471
242	0xbedea741	-0.4348698
243	0xbf2c17c8	-0.6722379
244	0xbf223e12	-0.6337596
245	0x3eb377aa	0.35052234
246	0xbf44e980	-0.7691879
247	0x3f02453a	0.5088688
248	0x3e26ebc8	0.16300881
249	0xbf8fc562	-1.1232111
250	0xbf02d4b7	-0.5110583
251	0x3f2df065	0.6794494
252	0x3e654442	0.2238932
253	0x3e266f8c	0.1625349
254	0xbf6567e7	-0.8961167
255	0xbeb763bf	-0.35818288

dense_1/MatMul_bias f4 [16]
0	0xbe8332fd	-0.25624838
1	0x3e151b25	0.14561136
2	0xbbc2a8de	-0.0059405407
3	0x3f7323b2	0.9497634
4	0xbdb7797a	-0.08958717
5	0xbde69526	-0.112589166
6	0xbdc1910d	-0.09451494
7	0xbd09bc65	-0.033626933
8	0xbeaf3066	-0.34216613
9	0xbde6f473	-0.11277094
10	0x405a9227	3.4151704
11	0x3e7b2df6	0.24529251
12	0xbdf3771c	-0.11887953
13	0xbd96699b	-0.073443614
14	0xbde5ff39	-0.112303205
15	0xbe1a1f7f	-0.15051077

dense_1/kernel/transpose f4 [16, 640]
0	0xbd9b26aa	-0.07575734
1	0x3d4bfbba	0.049800612
2	0x3d687439	0.056751464
3	0x41081913	8.506122
4	0x3fbe6d99	1.4877197
5	0xbe020590	-0.12697434
6	0xbd769438	-0.060199946
7	0x3c56b982	0.013105752
8	0x3bcf4bb1	0.006326162
9	0xbdda1cac	-0.1065
10	0x3c196a3f	0.00936371
11	0x41acc1a3	21.59455
12	0x3ecdc81d	0.40191737
13	0x3eda72da	0.4266575
14	0xbcdff979	-0.027340638
15	0xbd7cbd97	-0.061704244
16	0x3c8a3631	0.016871544
17	0x3cdc5eec	0.026900731
18	0xbd6e455f	-0.058171626
19	0x40ade714	5.434458
20	0xc0c347a0	-6.1024933
21	0xbd07df42	-0.0331719
22	0xbdd6570a	-0.1046582
23	0x3d944aa6	0.072408006
24	0xbdaa576d	-0.083174564
25	0xbdedc00e	-0.11608897
26	0x3cb76fcd	0.022392178
27	0xbcf41548	-0.029795304
28	0x3e88e7fa	0.26739484
29	0x3d433d30	0.047665775
30	0x3cd604e7	0.026125384
31	0x3d10c73e	0.035346262
32	0xbdd8cc6d	-0.10585866
33	0xbd9a7815	-0.07542435
34	0x3cc3bda0	0.023894131
35	0x40d21510	6.565071
36	0x3ea54de9	0.32286003
37	0x3d22c676	0.03974005
38	0xbd3b223b	-0.04568694
39	0xbd5859a3	-0.05281986
40	0x3d7acd32	0.061230846
41	0xbda5cd31	-0.08095778
42	0xbcd600dd	-0.026123459
43	0x409dca66	4.930957
44	0x3e60685a	0.21914807
45	0xbc6a29bc	-0.014292177
46	0x3dac1bd3	0.084037445
47	0xbd8dfe1f	-0.069332354
48	0x3cec64e4	0.028856702
49	0x3d9eac45	0.077477016
50	0xbb719750	-0.003686387
51	0x408293e6	4.080554
52	0x4125743d	10.3408785
53	0xbde15503	-0.11002543
54	0x3cc5377f	0.024074314
55	0x3d9ad542	0.07560207
56	0x3d05e3e2	0.03268803
57	0xbd90393f	-0.07042169
58	0x3d91c140	0.07116938
59	0x3eccf11e	0.40027708
60	0x3e6ed2ee	0.23322651
61	0xbdba6403	-0.09101107
62	0xbc5612bb	-0.013065989
63	0x3c0f4dc8	0.008746572
64	0xbd9607d7	-0.07325714
65	0x3c873e48	0.01650919
66	0x3d6ffca6	0.058590554
67	0x40d4e515	6.652964
68	0x40439626	3.0560393
69	0x3d3a3adc	0.04546629
70	0xbd222a0b	-0.039590877
71	0x3d950967	0.07277184
72	0xbd90f42f	-0.07077824
73	0xbd191471	-0.03737301
74	0xbd8efdc8	-0.06981999
75	0xc0424ce7	-3.0359437
76	0x3f3a8338	0.72856474
77	0xbd8b0a5a	-0.06789084
78	0xbb91c07a	-0.004447994
79	0x3d5b8736	0.053595744
80	0xbdb805db	-0.08985492
81	0x3d5e3df2	0.054258294
82	0xbc7e4f5e	-0.015521852
83	0x40fbdbb8	7.870571
84	0x41cde919	25.738817
85	0xbcbe672f	-0.023242561
86	0x3c802a69	0.015645223
87	0xbd2e05af	-0.04248589
88	0x3d49567c	0.049154744
89	0xbd80ea1d	-0.062946536
90	0x3cd520e7	0.026016666
91	0x3eae90c0	0.3409481
92	0x3f2452b0	0.6418867
93	0x3d88b692	0.066754475
94	0xbd814ab8	-0.063130796
95	0xbd127360	-0.03575456
96	0x3b2c899b	0.0026327136
97	0xbad24640	-0.0016042665
98	0x3d82414f	0.06360113
99	0x414a2545	12.634099
100	0x4136991f	11.412383
101	0x3d96cac0	0.0736289
102	0xbc3a48cf	-0.011369898
103	0x3cf93ded	0.030425036
104	0x3c718ec0	0.014743507
105	0x3c84b5e0	0.016200006
106	0x3d73ed1f	0.05955231
107	0x3fa221c3	1.2666553
108	0x3e2ab302	0.16669849
109	0xbdad6cf6	-0.08468048
110	0xbcb62dbc	-0.022238605
111	0xbd7bdff4	-0.061492875
112	0xbda0a63a	-0.07844205
113	0xbce6cfb8	-0.02817522
114	0x3cd7cf73	0.026344037
115	0x40790a02	3.8912358
116	0x41da08f6	27.254375
117	0xbd2b1a0b	-0.041772883
118	0x3c8dc8fc	0.01730775
119	0xbd125a7e	-0.03573083
120	0xbd93dbae	-0.07219635
121	0xbd2ce29a	-0.04220829
122	0xbd2f298f	-0.042764243
123	0xbeb92c7c	-0.3616675
124	0x3e2221b5	0.1583317
125	0xbcdc1edf	-0.02687019
126	0xbdd77a4a	-0.10521372
127	0xbd3f5ab2	-0.046717353
128	0xbd771cba	-0.06033013
129	0x39846c00	0.00025257468
130	0x3d7df490	0.06200081
131	0x40b828f1	5.7549977
132	0x409963cc	4.793432
133	0x3d429a5a	0.047510482
134	0xbccd9f48	-0.025100365
135	0x3db690ec	0.089143604
136	0x3dc3580b	0.09538277
137	0x3db88d3f	0.090113156
138	0x3be8434d	0.007088101
139	0xbfcaafae	-1.5834863
140	0x3e21e3d0	0.1580956
141	0xbda0ed85	-0.07857803
142	0x3dae6e2f	0.085171096
143	0x3d8d0423	0.06885555
144	0xbd52ca2c	-0.051462337
145	0x3d42e466	0.0475811
146	0xbdbb00f2	-0.0913104
147	0x40037a37	2.0543344
148	0xc0a3ce4c	-5.1189327
149	0x3d9578ef	0.07298457
150	0xbc13422a	-0.008987943
151	0xc034f92d	-2.8277085
152	0xbc4038a0	-0.01173225
153	0x3d8d980b	0.069137655
154	0xbdc2695d	-0.09492753
155	0x40882f9f	4.255813
156	0x3d2c3892	0.042046137
157	0x4004fbfa	2.0778794
158	0x3d899d49	0.06719453
159	0x3d9c1207	0.07620626
160	0xbc4051e4	-0.011738274
161	0xbdb334a4	-0.08750275
162	0xbc6918eb	-0.014227132
163	0x3f2cd5c8	0.67513704
164	0x40154d0f	2.3328283
165	0xbe811f38	-0.2521913
166	0xbc8d6868	-0.017261699
167	0x3f660347	0.8984875
168	0xbd93954e	-0.07206212
169	0x3e14127d	0.14460178
170	0x3d2291c2	0.039689787
171	0x3cd965ee	0.026537862
172	0xbdb559e4	-0.08855036
173	0x3fdd7447	1.730111
174	0x3d81611e	0.06317352
175	0xbad6f480	-0.0016399771
176	0xbc9f4550	-0.01944223
177	0x3c672de0	0.014110059
178	0x3d50862a	0.0509092
179	0x3e58f0d8	0.21185625
180	0x3fe4d02c	1.7876029
181	0xbd2e52ca	-0.042559423
182	0xbd5051ef	-0.050859388
183	0xbdbe434e	-0.09290181
184	0x3d2c9082	0.04213
185	0x3e5f6d60	0.21819067
186	0xbd997fb9	-0.07495064
187	0xbd00850b	-0.03137688
188	0x3d9a92a3	0.075475
189	0xbff32cdb	-1.8998064
190	0xbda20936	-0.07911913
191	0xbc245388	-0.010029681
192	0x3d298aa5	0.041391987
193	0xbd24b541	-0.04021192
194	0xbdd53bc3	-0.10411789
195	0x401a2304	2.4083872
196	0x40743f3f	3.8163602
197	0xbd2b0401	-0.041751865
198	0xbd9678e1	-0.073472746
199	0x401faed6	2.4950461
200	0x3d916891	0.071000226
201	0x3c824033	0.015899753
202	0xbd55e01f	-0.05221569
203	0x3f64b400	0.8933716
204	0x3e572938	0.21011817
205	0x413c2a58	11.760338
206	0xbcf31fcd	-0.02967825
207	0x3d0fa7da	0.035072185
208	0xbc11161a	-0.008855367
209	0x3d57127e	0.05250787
210	0xbd51c67b	-0.051214676
211	0x4046ca00	3.106079
212	0x3f9adabd	1.2098004
213	0x3cd889f2	0.026432965
214	0x3dc587af	0.0964502
215	0x4089466f	4.289848
216	0xbda3b110	-0.07992756
217	0x3dcfbb15	0.10143105
218	0x3d8d3e22	0.068966165
219	0x3f48546d	0.78253824
220	0x3f6edfa4	0.9331
221	0x411c09cd	9.752393
222	0xbd95e765	-0.07319526
223	0xbce29ce0	-0.027662694
224	0x3cba0b30	0.022710413
225	0x3d6a2fce	0.057174496
226	0x3c2947c7	0.010332054
227	0x40163d18	2.3474789
228	0x3dc834bf	0.097756855
229	0x3d3e92fa	0.046526887
230	0xbc824b54	-0.01590506
231	0x4054bab1	3.3238947
232	0x3c6b7a90	0.014372483
233	0x3de9db19	0.11418743
234	0xbdbe3504	-0.09287456
235	0xbfcd49df	-1.6038169
236	0x40448e3b	3.071181
237	0x419134e4	18.150826
238	0x3d97a1e5	0.07403926
239	0x3ba18ce0	0.0049301237
240	0xbbe6844c	-0.007034814
241	0x3ccf0ba0	0.025274098
242	0xbc8e1652	-0.017344628
243	0x3f9289b4	1.1448274
244	0x3f4990e8	0.78736734
245	0xbc38dc21	-0.011282952
246	0x3d4f67a6	0.050635956
247	0x408f2c38	4.474148
248	0xbd73e798	-0.059547037
249	0xbbf7bfec	-0.0075607207
250	0xbddb0cf8	-0.10695833
251	0xc07a3f23	-3.9101036
252	0x3fc13801	1.5095216
253	0x40a30020	5.0937653
254	0x3d46e541	0.048558477
255	0x3af9a680	0.0019046813

dense_2/MatMul_bias f4 [2]
0	0xbe439db1	-0.19103123
1	0xc0b8be4d	-5.77323

dense_2/kernel/transpose f4 [2, 16]
0	0xbe21688d	-0.15762539
1	0x3bb6342d	0.005560419
2	0xbc99a359	-0.018754648
3	0xbb874bf9	-0.0041289297
4	0x3ec919f1	0.39277604
5	0xbd1370f3	-0.03599639
6	0x3e94768b	0.2899669
7	0xbd064bd1	-0.032787148
8	0xbcf03b51	-0.02932516
9	0xbe1d04dc	-0.15333885
10	0xbf8d34a3	-1.1031688
11	0x3e37f6e7	0.1796528
12	0x3e8f596b	0.27997908
13	0x3cb6ee6d	0.022330487
14	0x3e05df39	0.13073434
15	0xbe6fbb23	-0.2341123
16	0x40e3d518	7.1197624
17	0x40814c3b	4.0405555
18	0x401990bf	2.3994596
19	0x4008a365	2.1349728
20	0xbde1a73a	-0.11018224
21	0xbec6710d	-0.38758126
22	0x3e8b440d	0.27200356
23	0x4005a8f5	2.0884373
24	0x4020f7b5	2.5151188
25	0x3e52f1c2	0.20600036
26	0xbe3b2a06	-0.1827775
27	0xc01a891c	-2.4146185
28	0x3d9c0533	0.07618179
29	0xbeca00cc	-0.39453733
30	0x3e307f71	0.17236115
31	0xbd87c7c1	-0.06629897
